outputs/magron2022/animals/logPCA_model.npz (npz, 42495 bytes, 5 tensors)

W (column-major) f8 [50, 2]
91.10104387571376 56.67096328503248 61.24073576689058 93.44011990071829 46.25675180727766 59.82832773601764 -11.557516432336193 -8.615610221000901
-59.56948332185276 -95.46373405654053 -134.93363442110098 -39.132404677424134 -55.911776165098765 -75.74311826945598 -51.37909412278575 -26.93413518544198
-59.03251326333973 -53.96738847946143 -12.701239440808873 -43.959147319291596 -34.81689055883054 48.161886546234385 -3.9854984246697316 3.007752008673589
2.4553687670433693 2.252823800658818 5.99168471985353 14.044719546924581 -7.059578679586853 0.188440558968663 -15.417673391114139 -15.85025763578023
-13.783976953450669 -6.609157294846709 19.3645091024172 0.7355946839527453 9.804681215092616 19.98310280007587 6.581230225003617 20.18236798654229
27.175120403993965 56.08759040931728 36.78096387118052 59.09609598137418 22.8719596468344 26.33393886408991 2.7049859987001743 9.794762618305093
6.293265272980415 17.993040914351106 25.98567278076633 32.16145315543909 76.2523525715017 83.01385211318392 32.21322070820749 32.05216680172618
32.36524413745658 72.95047394228081 77.49001484529136 97.12684274527149 -29.34642062203979 -0.7913134534953176 -20.492720645595263 -7.75200520912385
-7.418979796219264 -4.5503976808856255 0.7503468420806234 31.317687491026017 51.72354233798477 19.820460517404843 42.49557319001015 -19.515240564496043
-10.879981021473522 -13.244642486153925 -6.394571580242401 -23.692650799000077 -34.87564033782536 -40.36269420639358 -9.65919088805757 -9.73169762244064
-22.080078249048405 -19.776251207035962 -10.418950408346833 -7.614549842194809 -64.46952991232129 -51.96949473322898 -31.525152129072787 -41.63387060729283
-44.22241986669478 -46.61300071050196 -33.75461547924035 -11.026904979381552 13.547356801687485 0.8052896012590447 -3.3312358423890265 -8.589510144519203
-11.874537441915468 -19.596177821437156 -35.16566531075084 -19.70145898376338
00000000: b569 bb80 77c6 5640 ff03 fb1f e255 4c40
00000010: e2e2 fa6d d09e 4e40 d8f9 a8ec 2a5c 5740
00000020: 25b9 433e dd20 4740 6248 aca4 06ea 4d40
00000030: acbb 37cb 721d 27c0 7d90 4c43 313b 21c0
00000040: ce7c 59d4 e4c8 4dc0 83b8 9bd1 addd 57c0
00000050: 8e21 4b55 e0dd 60c0 e2af efa2 f290 43c0
00000060: 8d2f d514 b5f4 4bc0 e817 ee3f 8fef 52c0
00000070: 3dbc fd27 86b0 49c0 2684 c77b 23ef 3ac0
00000080: 7d5d 0565 2984 4dc0 31e8 bc62 d3fb 4ac0
00000090: fee0 21db 0867 29c0 a533 e056 c5fa 45c0
000000a0: 4f4b adde 8f68 41c0 9ade c6b2 b814 4840
000000b0: 67ba 81ff 4ce2 0fc0 dad9 fd48 e00f 0840
000000c0: a491 5061 98a4 0340 23d7 1b7c c805 0240
000000d0: f7da fe32 7cf7 1740 e710 ff7a e516 2c40
000000e0: 2475 8131 023d 1cc0 b553 01fb d11e c83f
000000f0: 427d 6649 d9d5 2ec0 63b3 05f8 54b3 2fc0
00000100: d4c6 5f6d 6591 2bc0 1ff2 0dee c66f 1ac0
00000110: e7f9 f177 505d 3340 2b08 d6dc fd89 e73f
00000120: 810e 1d2d ff9b 2340 90ee 06a0 acfb 3340
00000130: 5a59 1f04 2e53 1a40 5809 1aab af2e 3440
00000140: 3204 d8b0 d42c 3b40 01bb 9b29 360b 4c40
00000150: f809 c79f f663 4240 baa3 84df 4c8c 4d40
00000160: e195 56bf 38df 3640 2a21 7404 7d55 3a40
00000170: f170 04b3 cfa3 0540 4c68 3b20 eb96 2340
00000180: 7a03 52bb 4d2c 1940 5aba eaed 37fe 3140
00000190: e2f2 250d 55fc 3940 3439 3b7f aa14 4040
000001a0: 536a 668b 2610 5340 bf46 f9f3 e2c0 5440
000001b0: 624a f0d0 4a1b 4040 e9ac d966 ad06 4040
000001c0: 43b7 e451 c02e 4040 f672 a890 d43c 5240
000001d0: 2dc5 3967 5c5f 5340 42ab 0831 1e48 5840
000001e0: 2552 9a05 af58 3dc0 e9b5 7497 7052 e9bf
000001f0: 4ae5 b2f0 227e 34c0 2f6f 4ea7 0d02 1fc0
00000200: 33c9 290a 09ad 1dc0 c2ca 1c73 9b33 12c0
00000210: b894 6c61 d702 e83f 174e a8f7 5351 3f40
00000220: 3e75 0b09 9ddc 4940 bde9 51b3 09d2 3340
00000230: 1aef 39f1 6e3f 4540 4515 3ece e683 33c0
00000240: aea8 58df 8cc2 25c0 8a7c aac7 417d 2ac0
00000250: e249 8492 0a94 19c0 ec40 1190 51b1 37c0
00000260: 5802 8bfb 1470 41c0 5d74 85c3 6c2e 44c0
00000270: 920e d477 8151 23c0 13e3 1d12 a176 23c0
00000280: aac8 1402 8014 36c0 32b3 2b66 b8c6 33c0
00000290: b1fd fcaa 80d6 24c0 65f4 c78d 4c75 1ec0
000002a0: 7a7a 30c7 0c1e 50c0 6d6e 4667 18fc 49c0
000002b0: daca b35e 7086 3fc0 f31b 0cac 22d1 44c0
000002c0: a6b7 1241 781c 46c0 ed03 aace 764e 47c0
000002d0: 4332 723d 97e0 40c0 2e16 4d7d c60d 26c0
000002e0: 58fb 9426 3f18 2b40 62ed a6b2 eec4 e93f
000002f0: 4e97 32fa 5ea6 0ac0 8cbd 0e46 d42d 21c0
00000300: 124f 205f c3bf 27c0 51ac 151c 9f98 33c0
00000310: d6e0 5985 3495 41c0 c6bf e2d0 92b3 33c0

H (column-major) f8 [85, 2]
0.003269591195897749 0.02771299789688484 0.0677784544883311 0.02243376070448494 0.03595875892618575 -0.05126294055740468 -0.0010122182759956645 -0.025354855263140623
0.006454115310272552 0.028403387353672892 -0.048388450008403264 -0.08870513056671266 -0.08994274118642272 -0.07709709232508939 -0.1254844683294542 0.0028009221258841373
0.002119374581529144 0.01679823714535237 0.008077905599649392 -0.003104625107760589 0.017392822905175936 0.07012735250426848 0.25235621680530074 0.025534101783616356
0.19327864233371445 0.17326733459435947 0.013527969827371283 0.014842430793299142 0.06555614954386524 0.021798231838533466 0.18399706547770245 0.045552554388363434
0.05276880739327237 0.04422172282167422 0.05419890214334451 0.10845776146673203 0.2028338478307727 0.1779364558640543 0.18641132067290275 0.11916777841615456
0.18791615908068154 0.18993482254264984 -0.01543797716762844 -0.007401570715306784 -0.041035794834094336 -0.012441131863881873 -0.006123763083410087 0.010519228632907315
0.005384952346052592 -0.021281256206608482 0.010530485032281897 -0.02054169948790528 -0.2998679518868239 0.0008834682941225774 -0.021800711149644592 -0.013371874525363026
-0.3083208280383528 -0.2761648137280947 0.0005179825569176818 -0.002723261727785302 -0.004747235965816528 -0.0041240712385613955 -0.009362749030791111 -0.04343361066272588
-0.27705406110920194 -0.27244946970973183 -0.23633757792019913 -0.022153048047788997 -0.00233754170943383 0.012272580893214738 0.00945241491740053 -0.010438732420365615
0.03276386567028645 -0.051238591034838174 -0.19697768908677638 0.056007090469553364 0.002784470888500471 0.0008059092233559741 -0.05691560957111011 0.0980428013883673
-0.05688856755055054 -0.01718949773426536 0.0985721077985009 -0.10026263324586107 -0.03200018191181294 -0.04739956127401554 -0.03137077121004161 -0.1304780349744969
-0.05860878925566744 -0.18774215400140892 0.10539479831979183 0.007604893206913411 0.0030911696540019094 -0.03699290264696265 -0.0033578152307659434 0.015789952669013937
-0.22074455024355613 -0.03073859840777977 -0.02490890224680615 -0.05117743103415826 -0.010063897142089872 -0.020597594607178776 -0.03460299187700795 -0.05106581304782289
-0.005370287135296465 -0.025717985417232175 -0.1575881941544196 -0.2301354629827897 -0.046649473886645795 -0.33564491394913776 -0.23027375130335967 -0.028463610959655532
-0.0037921049423760536 -0.3828288055759347 -0.08011962800546567 0.06324021118457421 0.10831367482250673 0.05335084631785218 0.028939110076563537 0.11858608997967572
0.08056568514906594 0.014656485925304956 0.09465068393412536 0.057434422171898036 -0.009434151351572944 0.18090723133050474 0.14205954083931416 0.0010082355402005047
0.03737488747994038 0.27227953004572153 0.011902522710451478 0.012253134474333769 0.029452867754353313 -0.010598261840670382 0.02554094930537936 0.016511666268050198
-0.0074071963080965305 0.1306137124829251 0.045612261088276596 0.047380498263112955 0.04230086682776886 -0.08852389378309752 -0.2546538558471195 -0.021703962458092738
-0.059573444917048024 -0.04506597338235162 0.005984501297951414 -0.00845489969988889 -0.020758791377667316 -0.020704785912951478 0.0069838668406517045 0.02092473842727761
0.012468665792697823 0.00522345065622424 -0.011528525820890425 -0.030117080758179638 -0.02872871787042383 -0.05261610540455776 -0.06612562713982827 -0.09831309052653442
-0.06338025741433062 -0.016422493473913027 -0.003209077983675366 -0.1895568756888379 -0.10274732353228298 0.11639346649196845 -0.013027576924569774 -0.1467131669783093
-0.2487384300852472 -0.13238529315907405
00000000: ead5 3e68 d4c8 6a3f 7aa0 90ce cb60 9c3f
00000010: 419b 66c5 ed59 b13f 504d 3532 e0f8 963f
00000020: 7478 2fbb 2f69 a23f 73b6 61da 223f aabf
00000030: b97e 1319 8d95 50bf 3e9a 9988 9ff6 99bf
00000040: ae6d ea62 a16f 7a3f 465b 1e0f c715 9d3f
00000050: 1a98 94f4 5ec6 a8bf 257d c522 61b5 b6bf
00000060: e584 e8cb 7c06 b7bf d527 2792 a2bc b3bf
00000070: 16c3 d003 e00f c0bf 28f3 bc9d f5f1 663f
00000080: 4f22 8090 a65c 613f 8ad0 ad9c 8e33 913f
00000090: 8621 f722 268b 803f 59c7 bbe9 de6e 69bf
000000a0: d85b 4096 6ccf 913f ef96 8fbd ddf3 b13f
000000b0: 52bf 87b0 9a26 d03f bc9b 5f90 9c25 9a3f
000000c0: be56 ebc3 5abd c83f 6320 c6bf 9f2d c63f
000000d0: 502e eb5f 8db4 8b3f 328b cd56 b565 8e3f
000000e0: c0b3 57ae 49c8 b03f c0b2 6d93 4652 963f
000000f0: acb2 6441 378d c73f face b116 aa52 a73f
00000100: dd8c 015c 8304 ab3f ac6f 95ca 3aa4 a63f
00000110: 0a9a 5e60 f5bf ab3f 483a 7f4a e3c3 bb3f
00000120: bf3d 7aa3 75f6 c93f ade3 592d 9fc6 c63f
00000130: f777 f27e 53dc c73f b8cb 088f c781 be3f
00000140: 621b d2fe a20d c83f 799b 98c5 c84f c83f
00000150: d52e 6938 f29d 8fbf 0294 9402 1c51 7ebf
00000160: ec3b 8ec9 a402 a5bf ce42 d873 bc7a 89bf
00000170: de46 bf22 3b15 79bf 38ed a8f7 1a8b 853f
00000180: 5512 7823 880e 763f 8162 b3ed c0ca 95bf
00000190: abeb 98c6 0191 853f bbed 041e e208 95bf
000001a0: f83b 9e59 0931 d3bf b360 14b7 11f3 4c3f
000001b0: cd47 abf5 ec52 96bf fa62 2e9e b662 8bbf
000001c0: 626c 4648 87bb d3bf 8728 d12e afac d1bf
000001d0: 1c77 2812 27f9 403f 70ac e501 184f 66bf
000001e0: 2263 8373 d671 73bf 7b32 89f1 66e4 70bf
000001f0: 296d 1ae7 c62c 83bf efec af22 ee3c a6bf
00000200: 5208 ecf4 40bb d1bf 56d0 8de6 cf6f d1bf
00000210: 73d6 fd4b 4f40 cebf cee5 7ce3 49af 96bf
00000220: 61e2 3d26 2e26 63bf 154a 97ec 5d22 893f
00000230: 2cf6 81a7 c95b 833f 7379 dbf2 e660 85bf
00000240: e1bd 16e7 6cc6 a03f ce53 93d1 f13b aabf
00000250: 9cad 559e 9036 c9bf 465a d21b f6ac ac3f
00000260: 6e85 e36c 75cf 663f 4983 01e1 7468 4a3f
00000270: 04ca 7af3 0a24 adbf 283e 9241 5519 b93f
00000280: 96b3 4a92 7f20 adbf ddd0 69aa 1f9a 91bf
00000290: 50d7 4a8b 053c b93f ca43 cdda cfaa b9bf
000002a0: 9bf8 8ded 5362 a0bf ac85 085b c144 a8bf
000002b0: 8f7b cb68 d40f a0bf 56e9 8716 81b3 c0bf
000002c0: 7af5 38a2 f801 aebf 7c21 c255 ef07 c8bf
000002d0: b1b7 f34b 27fb ba3f a7ef cff9 4e26 7f3f
000002e0: f81b 4012 a752 693f c10a 1bd6 bbf0 a2bf
000002f0: f5d0 4453 d981 6bbf 3c74 46c9 3d2b 903f
00000300: 997c 0880 5b41 ccbf 1390 8b6b f079 9fbf
00000310: 12ff 1d22 b881 99bf cd85 2ba1 ed33 aabf
00000320: 79c1 c368 619c 84bf b83c db2c 8917 95bf
00000330: aa37 e9bc 7bb7 a1bf 53d5 f759 4c25 aabf
00000340: ba11 dc79 27ff 75bf abe1 24c9 d055 9abf
00000350: cc80 1096 d92b c4bf 6298 942f 1475 cdbf
00000360: f6ff 6f99 70e2 a7bf ecbc 1ece 347b d5bf
00000370: 47d2 7c3b 9c79 cdbf db88 ca98 9025 9dbf
00000380: 3975 bcd6 9e10 6fbf 9e95 fa63 4480 d8bf
00000390: df18 0d4e b882 b4bf fe72 d4ae 8230 b03f
000003a0: a67e 12eb 71ba bb3f 7656 4c58 cd50 ab3f
000003b0: 54af 6acd 36a2 9d3f fb24 3972 a85b be3f
000003c0: 6123 e5e6 f39f b43f 29aa c93d 3804 8e3f
000003d0: 9985 0af8 063b b83f f831 c969 0b68 ad3f
000003e0: 6306 2a5c 3652 83bf 8a53 16d9 f727 c73f
000003f0: 38ac fecc 012f c23f bc32 ffaa d884 503f
00000400: 3707 d61e cd22 a33f f5a9 3a1f 076d d13f
00000410: 1213 408e 5960 883f 12dd b9de 2b18 893f
00000420: 850a 1d7f e428 9e3f 0a41 00a0 8ab4 85bf
00000430: cece e617 6827 9a3f 37b6 7e2a 6fe8 903f
00000440: a68b 5f1e 0257 7ebf d5fb c23b f3b7 c03f
00000450: 086e 5783 7d5a a73f fe39 04b5 4142 a83f
00000460: 9a45 3c8f 75a8 a53f f685 b67c 80a9 b6bf
00000470: ae79 aaaf 3f4c d0bf 6cf2 cd43 9039 96bf
00000480: 48ef 411b 6980 aebf eee0 ad23 e312 a7bf
00000490: 3d9c b855 3483 783f 43a9 9d6d cd50 81bf
000004a0: 1949 49e8 ca41 95bf 8b9c 77a9 a233 95bf
000004b0: 2e2c e27a 1d9b 7c3f 23da e36c 4b6d 953f
000004c0: 9564 6ffe 2b89 893f a91f da5b 2f65 753f
000004d0: a17a f98a 449c 87bf 3d26 a113 03d7 9ebf
000004e0: 3882 d69e 0f6b 9dbf a232 e987 7ff0 aabf
000004f0: af38 feed 9bed b0bf e484 94f4 0b2b b9bf
00000500: 187e ce44 b039 b0bf 4792 8ee1 0ed1 90bf
00000510: 7bb6 af9f ec49 6abf 2e62 e852 6643 c8bf
00000520: 979b 520a a64d babf 5713 0d54 f6cb bd3f
00000530: 747c b2c6 33ae 8abf 193f 083f 7fc7 c2bf
00000540: 0cbd 3c2f a9d6 cfbf de77 4b54 00f2 c0bf

Y_hat (column-major) f8 [50, 85]
0.2764953339020688 0.20307023944356684 0.031003448301539192 0.025151221197279066 0.19722669002133428 0.20559075192656232 0.167988119777285 0.028914910052735148
0.019921613693194645 0.0070758700122524 0.7154011740169579 0.47040817645924826 0.681455894141304 0.5229154057605996 0.5388219582898649 0.5248685905998287
0.43618861256804015 0.15591230685844903 0.07438061190736583 0.24763302229187856 0.10375557712619894 0.7416221415646127 0.6164739790910677 0.6478398850453938
0.5702965594409862 0.7506946138319093 0.8381617442415997 0.8733631333606455 0.6002945959631477 0.6067872900905892 0.7247425807198612 0.702137030050532
0.6036552818610144 0.5771904273702363 0.9565230814257104 0.9196550646345444 0.8173161539050269 0.8819156321994885 0.8898857382490774 0.90442232385952
0.8403371488348257 0.6632893173899866 0.36587675534110264 0.5317031535435573 0.5509758591769999 0.6142407531016891 0.6326553585197494 0.7176446951930369
0.8401502966135252 0.7240425888244343 0.943246564968767 0.8406016927137205 0.600173569429418 0.7477063013727565 0.7977803426359585 0.8524113522076304
0.44164291946331174 0.19369803014818682 0.048307672363410735 0.010036783116115007 0.15217067589934197 0.5103652538852603 0.5484744179459823 0.31978426604693433
0.47751255104360885 0.6218582257558998 0.36392057753544954 0.20150105313682398 0.29453117163246256 0.32324389950826743 0.23203067161654412 0.9546977240911874
0.7911683542250991 0.8320138519752693 0.7973425649849433 0.8706601544743424 0.9138236925144172 0.9402821612953572 0.7700322419559564 0.8040232574256175
0.7968170378569163 0.7828337546434473 0.7400011008426401 0.7607569293852724 0.9749185784773418 0.9400164915899175 0.9138679526685949 0.9507806903288271
0.9352812378585728 0.9578202060470941 0.9484917677513119 0.9526371933125382 0.8449380812802431 0.9378236090002883 0.8628863798178706 0.8909392368475819
0.824710823445321 0.8794581028096361 0.915188458990196 0.9018375069952943 0.9998634585647861 0.9968566709246325 0.5783888003556429 0.8342925262723027
0.9936106371170117 0.9974965659513549 0.7518145418207879 0.018203506924885687 0.00032425534860406897 2.1964048675247604e-06 0.6895652402119328 0.9724959478689694
0.9932995233963909 0.8799896716611625 0.973409109534413 0.9924811165868164 0.8824233174715594 0.16390173755725354 0.18316659105931385 0.6339034694576777
0.14307806078732352 0.9999933790556488 0.9993002483467651 0.9996799179827606 0.9991881555972293 0.9999137936825576 0.9999844468155553 0.9999955959952682
0.9989896447022566 0.9993873858369116 0.9996476723485078 0.9995100307725141 0.9985573141058482 0.9987207362554723 0.9999998678028753 0.9999976127174784
0.9999814032195862 0.9999975053182533 0.9999955860559376 0.9999987147035709 0.999995716522138 0.9999882883706572 0.9989309783925066 0.999955277401306
0.9996964002325186 0.9998790767440741 0.999609356138015 0.999911760013949 0.9999853273717639 0.9999500663554868 0.828054572686846 0.6076752614655269
0.11465535010036089 0.1521320056490414 0.5500534745452244 0.625928084652194 0.24880148686988898 0.031747842630588 0.007948342494704292 0.001131650835874872
0.43635734237520274 0.5546909658309493 0.7306442844865018 0.4517219702420858 0.5825725182862165 0.6711985837152668 0.42137133025288215 0.11972556980596208
0.09404305790507046 0.2503642684980985 0.09792143308357763 0.9635740735611056 0.8319351415950452 0.8693108726855429 0.814725535506981 0.923458204787899
0.9619326249810322 0.9766113117115297 0.8113631970517021 0.8355855228416259 0.8807300733427446 0.8646701498363474 0.7945490411537371 0.7939927573895436
0.9948523374038041 0.9839129533517591 0.9576599207550944 0.9809145411603742 0.9779169834153472 0.9857388115343843 0.9743969931784128 0.9505312955808801
0.7469276445862111 0.9113072814593 0.8531464624111004 0.8952326819787257 0.8590941992697257 0.9182942381433509 0.9627933178853462 0.9314693344233811
0.9854012441975121 0.859916344677818 0.0018351325404574056 0.0016417157189669795 0.8069627381280418 0.8752991332649737 0.33691415795024315 0.00027710208224217297
1.891855074337316e-05 1.3039182451897337e-07 0.9984567996876288 0.9896077518805282 0.9995249748871279 0.9895079288916944 0.9953218578296051 0.9966672583945005
0.9721108107037565 0.11863585555646075 0.012710037464108124 0.6255061968714295 0.031819343504042696 0.9999864689946233 0.9995537370345375 0.9997773242214598
0.999178585514156 0.9999678143076854 0.999996552713458 0.99999907885564 0.9993733038982193 0.9995235466982295 0.9999177610567312 0.9998712769615974
0.9993080189737188 0.9990950750473492 0.9999999917644892 0.9999998318071227 0.9999943621517715 0.9999994139372801 0.9999994163148515 0.999999771515304
0.9999980136030147 0.9999499227340669 0.9899891668513161 0.9995857695489078 0.9992992784414344 0.9997693520147697 0.9997088723303392 0.9999470481426147
0.9999967706100341 0.9999613389815973 0.6256909335928746 0.9492931669753008 0.9993528909902938 0.998348371047954 0.9697920382859752 0.9402672107508023
00000000: 78c8 267c 19b2 d13f a8ba 99a2 34fe c93f
00000010: 16c7 1232 5ebf 9f3f bbb2 fce1 3dc1 993f
00000020: 6b1d c563 b93e c93f b13b f139 cc50 ca3f
00000030: 18ad 477c a280 c53f 5b51 2cc4 de9b 9d3f
00000040: 98ea 2edd 5466 943f faa5 b164 96fb 7c3f
00000050: e687 bd00 91e4 e63f 4476 6ae5 2a1b de3f
00000060: 5a1b 6097 7cce e53f 801f ca16 b9bb e03f
00000070: b917 278c 073e e13f 345d ea36 b9cb e03f
00000080: 9d82 77a4 83ea db3f 4c1f 8039 eff4 c33f
00000090: 243e 9997 9b0a b33f f09d 135a 70b2 cf3f
000000a0: 85dd 88ba b98f ba3f c64d 805b 5ebb e73f
000000b0: f7fe 60a3 27ba e33f 490f eab5 1abb e43f
000000c0: 5b40 fa91 de3f e23f f21f f6b5 b005 e83f
000000d0: e3d4 0894 38d2 ea3f 281d ea3d 97f2 eb3f
000000e0: 7512 3403 9d35 e33f 5529 d22d cd6a e33f
000000f0: f5bb 465a 1731 e73f 5515 ac13 e877 e63f
00000100: b0d2 b4e1 2451 e33f 5bd2 230f 5878 e23f
00000110: 58f6 124b d69b ee3f a798 4675 d06d ed3f
00000120: 8c77 f034 7427 ea3f 5018 c421 a738 ec3f
00000130: 7f9c dea7 f179 ec3f 79f7 d715 07f1 ec3f
00000140: b480 7bbb 0ae4 ea3f ad3c bf84 aa39 e53f
00000150: d09f a356 866a d73f e5c9 f454 b603 e13f
00000160: 779f 0120 98a1 e13f 3826 4e39 dca7 e33f
00000170: 4668 4f73 b63e e43f 3c10 0002 f2f6 e63f
00000180: d8c0 f5df 82e2 ea3f 1730 fd5c 5b2b e73f
00000190: bf5d 936b 132f ee3f 905d 6585 35e6 ea3f
000001a0: 17ef 9333 9f34 e33f 6c17 edc3 35ed e73f
000001b0: 736b 20a4 6a87 e93f b211 0f2c f446 eb3f
000001c0: 73b6 e6a9 e043 dc3f 6a9e 64d8 18cb c83f
000001d0: 13ba e481 c8bb a83f 0413 ed39 2a8e 843f
000001e0: 08ee 3226 547a c33f 3676 4e83 e954 e03f
000001f0: ffa8 f838 1a8d e13f c49a 1c6d 5877 d43f
00000200: 6f5b 8acd 908f de3f 78d8 cb38 43e6 e33f
00000210: c9cb b688 794a d73f 1886 aa58 c9ca c93f
00000220: 6818 7445 99d9 d23f cd3f 412e 07b0 d43f
00000230: 5088 2159 2eb3 cd3f 6831 d13d e28c ee3f
00000240: badc e04b 4051 e93f 44b0 8183 db9f ea3f
00000250: f435 0a8e d483 e93f 36b9 2caf 72dc eb3f
00000260: a819 352f 0b3e ed3f ffd2 789d ca16 ee3f
00000270: e21f 02a8 1aa4 e83f afb9 7bfb 8eba e93f
00000280: adb6 cf71 867f e93f 77c0 cc5f f90c e93f
00000290: bef0 e3c9 16ae e73f b748 7dea 1e58 e83f
000002a0: f455 5a72 8832 ef3f 138a 2277 9d14 ee3f
000002b0: f45e 3201 683e ed3f 012e 54a0 cb6c ee3f
000002c0: 6947 25eb d2ed ed3f b172 8d8f 76a6 ee3f
000002d0: 2f8c 6068 0b5a ee3f ec60 c7fe 007c ee3f
000002e0: d9cb 4796 bb09 eb3f 7055 42a8 a602 ee3f
000002f0: 2d69 afe5 c39c eb3f 5879 9f00 9382 ec3f
00000300: 355b ebf3 0764 ea3f 81a0 b851 8524 ec3f
00000310: d243 a14e 3949 ed3f 113b db54 dadb ec3f
00000320: e409 e0a6 e1fe ef3f a076 0df6 3fe6 ef3f
00000330: 1bce bc3a 2982 e23f 5860 743d 86b2 ea3f
00000340: 5e02 ec88 a8cb ef3f 9f44 14eb 7deb ef3f
00000350: 59e1 b85e dd0e e83f dbd9 a8ab f0a3 923f
00000360: cea2 281e 1a40 353f 9883 7758 be6c c23e
00000370: 7665 651f eb10 e63f 30df 72d2 af1e ef3f
00000380: 1bd6 0315 1cc9 ef3f 7147 9319 e028 ec3f
00000390: 6985 62dc 2a26 ef3f 006a 34c2 67c2 ef3f
000003a0: e094 38d3 cf3c ec3f ff71 486d bbfa c43f
000003b0: 4fe7 28bb 0072 c73f 7c88 c4ed ef48 e43f
000003c0: dba6 edc3 6150 c23f 5e56 681d f2ff ef3f
000003d0: cf16 b183 44fa ef3f 8186 46bd 60fd ef3f
000003e0: aee6 5a70 59f9 ef3f b3f2 5536 4bff ef3f
000003f0: 559b f261 dfff ef3f d632 9ec3 f6ff ef3f
00000400: 463e a121 b9f7 ef3f 028b 4641 fbfa ef3f
00000410: b74c 881d 1dfd ef3f 0f24 c675 fcfb ef3f
00000420: db84 e877 2ef4 ef3f c9bc 8130 85f5 ef3f
00000430: 2df7 06b9 ffff ef3f 7b63 56fe faff ef3f
00000440: 44f6 edff d8ff ef3f 2e8d adc4 faff ef3f
00000450: bb25 48be f6ff ef3f 3234 f64d fdff ef3f
00000460: 1249 5304 f7ff ef3f 70eb 5d70 e7ff ef3f
00000470: f306 6519 3ef7 ef3f c5d6 bc35 a2ff ef3f
00000480: daae 1d4e 83fd ef3f 4f41 d267 02ff ef3f
00000490: b46d acc2 ccfc ef3f aba9 84f2 46ff ef3f
000004a0: 9f54 b13a e1ff ef3f b227 1448 97ff ef3f
000004b0: c6c8 9f4d 6c7f ea3f 5fa5 d263 1372 e33f
000004c0: 3113 fe92 0d5a bd3f a800 78c2 0f79 c33f
000004d0: 0e22 87be 099a e13f ba54 a755 9a07 e43f
000004e0: 4bb3 a624 bad8 cf3f a844 a2d3 4041 a03f
000004f0: aac9 9378 3847 803f 561e 28d5 7c8a 523f
00000500: fcbd b758 47ed db3f b82d b444 07c0 e13f
00000510: 801f 5c1f 7061 e73f b0c3 4444 03e9 dc3f
00000520: 20ce 321f 6fa4 e23f 00b7 c573 757a e53f
00000530: 091f ba74 bff7 da3f 32c3 cfbe 55a6 be3f
00000540: 953c 1eb2 3413 b83f ad52 52da f705 d03f
00000550: 13e2 ab08 6111 b93f 84fd a64b 99d5 ee3f
00000560: 3567 3172 369f ea3f 67bb 0709 65d1 eb3f
00000570: 87fe 4649 3b12 ea3f 422e 9938 f88c ed3f
00000580: 87f7 a7ed 26c8 ee3f c18c 965d 6640 ef3f
00000590: 687b 90f3 aff6 e93f ffb4 b3d9 1dbd ea3f
000005a0: 6c8b b3d5 f02e ec3f 2afc ebbb 60ab eb3f
000005b0: c759 5a1c f26c e93f 6af7 c77f 6368 e93f
000005c0: aef3 af91 d4d5 ef3f e535 9804 377c ef3f
000005d0: 9ca8 0a6b 26a5 ee3f 858c 4ee4 a663 ef3f
000005e0: ba19 bf8e 184b ef3f d104 be1e 2c8b ef3f
000005f0: 5fb4 609a 422e ef3f 3d05 8b9b c06a ee3f
00000600: 1d3c bfcd d4e6 e73f f62d 4fe3 6d29 ed3f
00000610: e11e 58cf f94c eb3f 7e16 6d02 bfa5 ec3f
00000620: 377f 411e b37d eb3f 29ca 1d99 aa62 ed3f
00000630: 21ff a3ee 33cf ee3f ee68 12c7 98ce ed3f
00000640: 4583 a830 6888 ef3f a8fc 3548 6f84 eb3f
00000650: c68d af8f 1a11 5e3f e66f a0d4 dae5 5a3f
00000660: b837 2b85 a3d2 e93f fbe2 f253 7302 ec3f
00000670: be29 7d66 0090 d53f 0597 8161 0029 323f
00000680: c43e 5ee8 68d6 f33e 626c 289e 3a80 813e
00000690: ee11 a4ac 5bf3 ef3f 0a3d 46e0 ddaa ef3f
000006a0: 2b9d d5cc 1bfc ef3f e41e 3788 0caa ef3f
000006b0: 5fe8 8b39 add9 ef3f 2d8c f9bb b2e4 ef3f
000006c0: 19f1 8121 881b ef3f 8a7b bf5f eb5e be3f
000006d0: 320b ea59 b807 8a3f 9442 6092 2504 e43f
000006e0: 90c9 75ff 9f4a a03f 17c8 989f e3ff ef3f
000006f0: b40d 651e 58fc ef3f ac08 da03 2dfe ef3f
00000700: e8b2 745e 45f9 ef3f ab21 7080 bcff ef3f
00000710: 9c8b 40c5 f8ff ef3f 17e2 7611 feff ef3f
00000720: 54a0 17b9 ddfa ef3f 8ed3 14ce 18fc ef3f
00000730: d7b3 4d88 53ff ef3f 7050 580c f2fe ef3f
00000740: e9ec 83cf 54fa ef3f 7789 1d3c 96f8 ef3f
00000750: b91e 94fb ffff ef3f 39bf b3a5 ffff ef3f
00000760: 260a 342d f4ff ef3f 3227 5cc5 feff ef3f
00000770: 8dec a2c6 feff ef3f 704d 5585 ffff ef3f
00000780: 5aad 8fd5 fbff ef3f 38fa f8fa 96ff ef3f
00000790: 7ea9 e0c2 fdad ef3f 3f4e b84b 9bfc ef3f
000007a0: c350 fa7a 42fa ef3f 1e4a ce4b 1cfe ef3f
000007b0: 4dc1 0576 9dfd ef3f f622 b0f3 90ff ef3f
000007c0: d205 3c3a f9ff ef3f 3017 06ec aeff ef3f
000007d0: 60ec 25fe a805 e43f b534 4f10 9c60 ee3f
000007e0: 76ec fee9 b2fa ef3f 874e 7548 78f2 ef3f
000007f0: 8f80 0b50 8908 ef3f 72a0 f542 ab16 ee3f

time f8 []
1.1492640972137451
00000000: 0000 00c0 6263 f23f

loss f8 [557]
0.544684433644903 0.403942469084122 0.3734016714930496 0.35988221108718493 0.3517278429329712 0.3460812805107611 0.34185064153763406 0.3385153250242773
0.33579131355756897 0.33350788861520636 0.33155486751866214 0.3298572873010336 0.32836205540333546 0.3270303604711265 0.32583309363474605 0.3247479519254259
0.32375753400706914 0.32284804786415844 0.32200841001302005 0.3212296030785008 0.3205042084517117 0.3198260603751871 0.3191899859933815 0.31859160739072684
0.31802718906613286 0.3174935191993422 0.316987816371046 0.31650765566944017 0.3160509097043949 0.3156157011813149 0.3152003645053418 0.3148034144875126
0.3144235206714387 0.31405948613470486 0.31371022987349295 0.31337477207288084 0.31305222171418207 0.3127417660854908 0.3124426618507666 0.3121542274022208
0.31187583627517335 0.3116069114473976 0.3113469203788006 0.31109537067418425 0.3108518062732977 0.31061580408947803 0.3103869710320473 0.31016494135867345
0.3099493743128982 0.30973995200938426 0.3095363775352751 0.3093383732410216 0.3091456791979152 0.30895805180296093 0.30877526251434834 0.308597096703121
0.308423352608506 0.30825384038598186 0.30808838123852855 0.3079268066226183 0.30776895752154554 0.3076146837795158 0.30746384349065226 0.3073163024377236
0.307171933575956 0.30703061655779623 0.3068922372948707 0.3067566875538541 0.30662386458320207 0.30649367076807443 0.3063660133109976 0.306240803936071
0.3061179586147204 0.3059973973112101 0.3058790437462619 0.3057628251773117 0.3056486721940574 0.30553651852806274 0.3054263008753128 0.3053179587307072
0.30521143423354885 0.30510667202320396 0.30500361910415 0.3049022247196941 0.3048024402337384 0.30470421901998523 0.3046075163580273 0.3045122893358609
0.3044184967583176 0.30432609906103475 0.304235058229539 0.30414533772313357 0.3040569024032025 0.30396971846568804 0.3038837533774119 0.30379897581601656
0.30371535561327384 0.3036328637015423 0.3035514720631596 0.30347115368260913 0.3033918825012561 0.3033136333744973 0.3032363820311953 0.3031601050352214
0.3030847797490198 0.30301038429902455 0.30293689754286274 0.30286429903820855 0.3027925690131985 0.30272168833833013 0.3026516384997372 0.3025824015737745
0.30251396020284804 0.30244629757239894 0.3023793973889949 0.30231324385945707 0.3022478216709783 0.30218311597216285 0.3021191123549567 0.3020557968374045
0.3019931558471928 0.30193117620596427 0.3018698451143133 0.30180915013747334 0.3017490791916379 0.3016896205308926 0.3016307627347175 0.3015724946960425
0.3015148056098212 0.30145768496210035 0.30140112251956264 0.3013451083195075 0.3012896326602776 0.30123468609207016 0.3011802594081537 0.30112634363643476
0.30107293003139446 0.3010200100663455 0.3009675754260156 0.3009156179994334 0.30086412987310446 0.3008131033244653 0.30076253081560306 0.30071240498721874
0.3006627186528504 0.3006134647933034 0.300564636551321 0.3005162272264515 0.30046823027012154 0.30042063928090396 0.3003734479999604 0.3003266503066738
0.30028024021443156 0.3002342118665836 0.30018855953254653 0.3001432776040559 0.30009836059156264 0.30005380312076035 0.3000095999292379 0.2999657458632691
0.2999222358747069 0.2998790650179952 0.2998362284472896 0.29979372141368826 0.29975153926254633 0.2997096774309053 0.2996681314449984 0.2996268969178512
0.29958596954697075 0.29954534511210035 0.2995050194730679 0.29946498856769926 0.29942524840980655 0.29938579508724006 0.2993466247600171 0.2993077336584979
0.29926911808163725 0.29923077439528317 0.29919269903053547 0.2991548884821627 0.2991173393070619 0.29908004812277267 0.2990430116060424 0.29900622649142855
0.29896968956995024 0.298933397687785 0.29889734774500454 0.2988615366943408 0.2988259615400034 0.2987906193365265 0.29875550718765176 0.2987206222452453
0.29868596170823986 0.298651522821633 0.29861730287547494 0.29858329920392584 0.298549509184317 0.29851593023624845 0.29848255982070426 0.2984493954392086
0.29841643463298834 0.29838367498216944 0.29835111410500065 0.2983187496570837 0.298286579330636 0.2982546008537785 0.2982228119898254 0.2981912105366136
0.2981597943258337 0.2981285612223915 0.2980975091237853 0.2980666359594802 0.29803593969033554 0.29800541830801464 0.2979750698344252 0.2979448923211763
0.2979148838490373 0.29788504252742404 0.2978553664938935 0.2978258539136471 0.29779650297905447 0.2977673119091799 0.29773827894933336 0.2977094023706188
0.29768068046950125 0.29765211156739063 0.2976236940102209 0.29759542616805174 0.2975673064346709 0.2975393332272209 0.2975115049858119 0.29748382017317043
0.29745627727426516 0.2974288747959771 0.29740161126674836 0.29737448523624976 0.29734749527506005 0.29732063997434505 0.2972939179455468 0.29726732782008486
0.29724086824905116 0.2972145379029238 0.29718833547128254 0.2971622596625275 0.29713630920360873 0.29711048283975805 0.29708477933422356 0.297059197468014
0.2970337360396533 0.2970083938649239 0.296983169776624 0.29695806262433727 0.2969330712741936 0.29690819460863505 0.29688343152619817 0.29685878094128587
00000000: fea4 a40c 0e6e e13f 88a2 8b83 31da d93f
00000010: 8a66 d51f d0e5 d73f 3106 c265 4f08 d73f
00000020: d657 9f7f b582 d63f 1f4c 6319 3226 d63f
00000030: 1754 6183 e1e0 d53f 2624 8b2e 3caa d53f
00000040: 54ae 80d9 9a7d d53f 51dc a378 3158 d53f
00000050: 04a0 34e8 3138 d53f a688 53bd 611c d53f
00000060: 3f19 4d48 e203 d53f f171 c1bf 10ee d43f
00000070: 4968 470c 73da d43f 9f9c 3da2 abc8 d43f
00000080: cd36 1985 71b8 d43f 30db c9db 8aa9 d43f
00000090: 8cbe 8229 c99b d43f 92ab ee9b 068f d43f
000000a0: 32f3 6115 2483 d43f aa13 6eb9 0778 d43f
000000b0: 6b58 c3d5 9b6d d43f d37c a10d ce63 d43f
000000c0: 49c8 11b6 8e5a d43f c4cc 6956 d051 d43f
000000d0: 78d2 2244 8749 d43f 002b 8253 a941 d43f
000000e0: 8d4a 4398 2d3a d43f fe61 ab32 0c33 d43f
000000f0: d736 4f26 3e2c d43f e626 7938 bd25 d43f
00000100: eb20 98d4 831f d43f a99d 7cf5 8c19 d43f
00000110: fe8b 6e12 d413 d43f 5172 5c0f 550e d43f
00000120: a1f6 8c2f 0c09 d43f bd8c 5b0a f603 d43f
00000130: f98c a181 0fff d33f 3b0b 80b9 55fa d33f
00000140: b2ba 4d11 c6f5 d33f ecf1 771d 5ef1 d33f
00000150: 572f 2fa2 1bed d33f 3ae3 be8e fce8 d33f
00000160: 752a 76f9 fee4 d33f e1d7 0b1c 21e1 d33f
00000170: 25fa 6b50 61dd d33f a614 e00d bed9 d33f
00000180: 5bbb 85e6 35d6 d33f 4946 0985 c7d2 d33f
00000190: 98ec 9baa 71cf d33f 31f4 1d2d 33cc d33f
000001a0: 47b4 76f5 0ac9 d33f 0518 15fe f7c5 d33f
000001b0: 3907 9451 f9c2 d33f c3bf 7e09 0ec0 d33f
000001c0: 6bad 314d 35bd d33f a1bf d450 6eba d33f
000001d0: a29c 6c54 b8b7 d33f 0a60 00a3 12b5 d33f
000001e0: fadb d191 7cb2 d33f c18d a67f f5af d33f
000001f0: 08ab 1fd4 7cad d33f cbd9 1fff 11ab d33f
00000200: d94c 3d78 b4a8 d33f 0322 3fbe 63a6 d33f
00000210: b6f9 a456 1fa4 d33f c4e0 37cd e6a1 d33f
00000220: 09b6 a3b3 b99f d33f ce4f 18a1 979d d33f
00000230: 65b4 f131 809b d33f 8acb 6607 7399 d33f
00000240: fffb 3dc7 6f97 d33f 8e37 871b 7695 d33f
00000250: 3301 5bb2 8593 d33f 0c06 9e3d 9e91 d33f
00000260: 4fea c872 bf8f d33f 58f3 b30a e98d d33f
00000270: 1f41 66c1 1a8c d33f b64f e855 548a d33f
00000280: 857e 198a 9588 d33f 4663 8822 de86 d33f
00000290: 9bb1 4de6 2d85 d33f c684 e99e 8483 d33f
000002a0: a9df 2218 e281 d33f 3e38 e91f 4680 d33f
000002b0: a0e7 3786 b07e d33f ff5d fb1c 217d d33f
000002c0: 17f7 f7b7 977b d33f 6354 b22c 147a d33f
000002d0: 241f 5952 9678 d33f 681c b001 1e77 d33f
000002e0: e877 fc14 ab75 d33f 8d34 f267 3d74 d33f
000002f0: 70ab a2d7 d472 d33f 9a09 6c42 7171 d33f
00000300: b7ba e987 1270 d33f 5ab1 e588 b86e d33f
00000310: cc7d 4a27 636d d33f 1428 1646 126c d33f
00000320: c9be 4dc9 c56a d33f c58f f195 7d69 d33f
00000330: 9201 f291 3968 d33f 3e01 25a4 f966 d33f
00000340: 6afe 3bb4 bd65 d33f b769 baaa 8564 d33f
00000350: ebb0 ec70 5163 d33f 3aaf dff0 2062 d33f
00000360: 708b 5815 f460 d33f 7cfe ccc9 ca5f d33f
00000370: dafa 5bfa a45e d33f 22b0 c693 825d d33f
00000380: 3ee6 6983 635c d33f c8a9 37b7 475b d33f
00000390: 6246 b11d 2f5a d33f e389 e1a5 1959 d33f
000003a0: 484d 573f 0758 d33f 803e 20da f756 d33f
000003b0: e0e8 c366 eb55 d33f c5f7 3ed6 e154 d33f
000003c0: 86b0 fe19 db53 d33f b1a2 dc23 d752 d33f
000003d0: 2b88 1ae6 d551 d33f 0c56 5e53 d750 d33f
000003e0: 0b7a ae5e db4f d33f e942 6efb e14e d33f
000003f0: 0171 5a1d eb4d d33f c0ed 85b8 f64c d33f
00000400: 99a7 56c1 044c d33f de90 822c 154b d33f
00000410: debf 0cef 274a d33f dfad 42fe 3c49 d33f
00000420: 6f95 b94f 5448 d33f ceeb 4bd9 6d47 d33f
00000430: d9f6 1691 8946 d33f 9e7b 786d a745 d33f
00000440: ee86 0c65 c744 d33f 824c ab6e e943 d33f
00000450: 161d 6781 0d43 d33f cb71 8a94 3342 d33f
00000460: f70b 969f 5b41 d33f 8228 3f9a 8540 d33f
00000470: f5c5 6d7c b13f d33f b0fb 3a3e df3e d33f
00000480: 6563 efd7 0e3e d33f 2c91 0142 403d d33f
00000490: 779c 1475 733c d33f e9b6 f669 a83b d33f
000004a0: 9fd1 9f19 df3a d33f 3550 307d 173a d33f
000004b0: 13c8 ef8d 5139 d33f 16cd 4b45 8d38 d33f
000004c0: d4c8 d69c ca37 d33f 32de 468e 0937 d33f
000004d0: 3ad7 7413 4a36 d33f 661d 5b26 8c35 d33f
000004e0: 09bc 14c1 cf34 d33f f26b dcdd 1434 d33f
000004f0: dea7 0b77 5b33 d33f 8eca 1987 a332 d33f
00000500: 4034 9b08 ed31 d33f 6078 40f6 3731 d33f
00000510: f192 d54a 8430 d33f b325 4101 d22f d33f
00000520: 21bb 8314 212f d33f 9311 b77f 712e d33f
00000530: ae6b 0d3e c32d d33f 93e7 d04a 162d d33f
00000540: 39dc 62a1 6a2c d33f 773b 3b3d c02b d33f
00000550: 97fa e719 172b d33f 817f 0c33 6f2a d33f
00000560: 2c13 6184 c829 d33f 8858 b209 2329 d33f
00000570: d3c8 e0be 7e28 d33f 3b33 e09f db27 d33f
00000580: da41 b7a8 3927 d33f f901 7fd5 9826 d33f
00000590: 9270 6222 f925 d33f e90a 9e8b 5a25 d33f
000005a0: 2962 7f0d bd24 d33f d4b2 64a4 2024 d33f
000005b0: ce7f bc4c 8523 d33f ff2f 0503 eb22 d33f
000005c0: 73af ccc3 5122 d33f a313 b08b b921 d33f
000005d0: 8042 5b57 2221 d33f 9c9b 8823 8c20 d33f
000005e0: f6a4 00ed f61f d33f d2b9 99b0 621f d33f
000005f0: 20bc 376b cf1e d33f 46c8 cb19 3d1e d33f
00000600: adea 53b9 ab1d d33f 46d9 da46 1b1d d33f
00000610: 4eac 77bf 8b1c d33f f79b 4d20 fd1b d33f
00000620: 5abe 8b66 6f1b d33f f6c7 6c8f e21a d33f
00000630: 6ecd 3698 561a d33f 2708 3b7e cb19 d33f
00000640: 599b d53e 4119 d33f 865b 6dd7 b718 d33f
00000650: d597 7345 2f18 d33f eae3 6386 a717 d33f
00000660: 01e4 c397 2017 d33f d31a 2377 9a16 d33f
00000670: 9db7 1a22 1516 d33f e966 4d96 9015 d33f
00000680: 8223 67d1 0c15 d33f 8209 1dd1 8914 d33f
00000690: 822a 2d93 0714 d33f 9161 5e15 8613 d33f
000006a0: eb2a 8055 0513 d33f 6e7a 6a51 8512 d33f
000006b0: 3b94 fd06 0612 d33f 81e6 2174 8711 d33f
000006c0: 64e3 c796 0911 d33f dddc e76c 8c10 d33f
000006d0: 25e1 81f4 0f10 d33f c397 9d2b 940f d33f
000006e0: 0a20 4a10 190f d33f c3ef 9da0 9e0e d33f
000006f0: 9ab3 b6da 240e d33f 502f b9bc ab0d d33f
00000700: 461f d144 330d d33f 371b 3171 bb0c d33f
00000710: 9578 1240 440c d33f 872e b5af cd0b d33f
00000720: e8b9 5fbe 570b d33f 0803 5f6a e20a d33f
00000730: 6842 06b2 6d0a d33f 08e8 ae93 f909 d33f
00000740: 0e81 b80d 8609 d33f 92a0 881e 1309 d33f
00000750: e4c6 8ac4 a008 d33f 2e4a 30fe 2e08 d33f
00000760: db3f f0c9 bd07 d33f 0766 4726 4d07 d33f
00000770: 9e0d b811 dd06 d33f 5505 ca8a 6d06 d33f
00000780: 3684 0a90 fe05 d33f 7715 0c20 9005 d33f
00000790: 7884 6639 2205 d33f f6c8 b6da b404 d33f
000007a0: 03f4 9e02 4804 d33f 2a1d c6af db03 d33f
000007b0: bd4f d8e0 6f03 d33f da78 8694 0403 d33f
000007c0: 2356 86c9 9902 d33f b363 927e 2f02 d33f
000007d0: 02cb 69b2 c501 d33f b752 d063 5c01 d33f
000007e0: cd4d 8e91 f300 d33f 1e8b 703a 8b00 d33f
000007f0: 1146 485d 2300 d33f 8b16 ebf8 bbff d23f
